…
In\u00a0[3]: Copied! <pre>bert_tokenizer = transformers.BertTokenizer.from_pretrained(\n    'bert-base-uncased', local_files_only=True\n)\nhf_model = transformers.BertModel.from_pretrained(\n    'bert-base-uncased', config=bert_config, add_pooling_layer=False\n)\nhf_model\n</pre> bert_tokenizer = transformers.BertTokenizer.from_pretrained(     'bert-base-uncased', local_files_only=True ) hf_model = transformers.BertModel.from_pretrained(     'bert-base-uncased', config=bert_config, add_pooling_layer=False ) hf_model Out[3]: <pre>BertModel(\n  (embeddings): BertEmbeddings(\n    (word_embeddings): Embedding(30522, 768, padding_idx=0)\n    (position_embeddings): Embedding(512, 768)\n    (token_type_embeddings): Embedding(2, 768)\n    (LayerNorm): LayerNorm((768,), eps=1e-12, elementwise_affine=True)\n    (dropout): Dropout(p=0.1, inplace=False)\n  )\n  (encoder): BertEncoder(\n    (layer): ModuleList(\n      (0-11): 12 x BertLayer(\n        (attention): BertAttention(\n          (self): BertSdpaSelfAttention(\n            (query): Linear(in_features=768, out_features=768, bias=True)\n            (key): Linear(in_features=768, out_features=768, bias=True)\n            (value): Linear(in_features=768, out_features=768, bias=True)\n            (dropout): Dropout(p=0.1, inplace=False)\n          )\n          (output): BertSelfOutput(\n            (dense): Linear(in_features=768, out_features=768, bias=True)\n            (LayerNorm): LayerNorm((768,), eps=1e-12, elementwise_affine=True)\n            (dropout): Dropout(p=0.1, inplace=False)\n          )\n        )\n        (intermediate): BertIntermediate(\n          (dense): Linear(in_features=768, out_features=3072, bias=True)\n          (intermediate_act_fn): GELUActivation()\n        )\n        (output): BertOutput(\n          (dense): Linear(in_features=3072, out_features=768, bias=True)\n          (LayerNorm): LayerNorm((768,), eps=1e-12, elementwise_affine=True)\n          (dropout): Dropout(p=0.1, inplace=False)\n        )\n      )\n    )\n  )\n)</pre> <p>\u200b\u63a5\u4e0b\u6765\u200b\uff0c\u200b\u6211\u4eec\u200b\u6839\u636e\u200bconfig\u200b\u548c\u200b\u6a21\u578b\u200b\u7684\u200b\u7ed3\u6784\u200b\uff0c\u200b\u5b9e\u73b0\u200b\u4e00\u4e2a\u200bBERT\u200b\u6a21\u578b\u200b\u3002</p> In\u00a0[4]: Copied! <p
…
n_layers,             input_dim=config.hidden_size,             num_heads=config.num_attention_heads,             ffn_dim=config.intermediate_size,             dropout=config.hidden_dropout_prob,             layer_norm_eps=config.layer_norm_eps,             activation=config.hidden_act,         )      def forward(self, input_ids, padding_mask):         input_embeds = self.shared(input_ids)         return self.encoder(input_embeds, padding_mask=padding_mask)  custom_model = CustomBertModel(bert_config) custom_model Out[4]: <pre>CustomBertModel(\n  (shared): BertEmbeddings(\n    (word_embeddings): Embedding(30522, 768, padding_idx=0)\n    (positional_embedding): Embedding(512, 768)\n    (token_type_embeddings): Embedding(2, 768)\n    (ln): LayerNorm((768,), eps=1e-12, elementwise_affine=True)\n    (dropout): Dropout(p=0.1, inplace=False)\n  )\n  (encoder): Encoder(\n    (layers): ModuleList(\n      (0-11): 12 x EncoderLayer(\n        (attention): MultiHeadSelfAttention(\n          (W_Q): Linear(in_features=768, out_features=768, bias=True)\n          (W_K): Linear(in_features=768, out_features=768, bias=True)\n          (W_V): Linear(in_features=768, out_features=768, bias=True)\n          (W_O): Linear(in_features=768, out_features=768, bias=True)\n        )\n        (norm1): LayerNorm((768,), eps=1e-12, elementwise_affine=True)\n        (dropout1): Dropout(p=0.1, inplace=False)\n        (ffn): FFN(\n          (fc1): Linear(in_features=768, out_features=3072, bias=True)\n          (fc2): Linear(in_features=3072, out_features=768, bias=True)\n          (act): GELU(approximate='none')\n        )\n        (norm2): LayerNorm((768,), eps=1e-12, elementwise_affine=True)\n        (dropout2): Dropout(p=0.1, inplace=False)\n      )\n    )\n  )\n)</pre> <p>\u200b\u6211\u4eec\u200b\u9700\u8981\u200b\u5b9e\u73b0\u200b\u4e00\u4e2a\u200b\u51fd\u6570\u200b\uff0c\u200b\u5c06\u200b\u9884\u200b\u8bad\u7ec3\u200b\u6a21\u578b\u200b\u7684\u200b\u6743\u91cd\u200b\u52a0\u8f7d\u200b\u5230\u200b\u6211\u4eec\u200b\u7684\u200b\u6a21\u578b\u
…
